…
cution":{"iopub.status.busy":"2024-06-01T21:00:27.748263Z","iopub.execute_input":"2024-06-01T21:00:27.748626Z","iopub.status.idle":"2024-06-01T21:00:30.622999Z","shell.execute_reply.started":"2024-06-01T21:00:27.748598Z","shell.execute_reply":"2024-06-01T21:00:30.622002Z"},"trusted":true},"execution_count":13,"outputs":[{"name":"stdout","text":"Model: \"sequential\"\n_________________________________________________________________\nLayer (type)                 Output Shape              Param #   \n=================================================================\nconv2d (Conv2D)              (None, 224, 224, 32)      896       \n_________________________________________________________________\nmax_pooling2d (MaxPooling2D) (None, 112, 112, 32)      0         \n_________________________________________________________________\nconv2d_1 (Conv2D)            (None, 112, 112, 64)      18496     \n_________________________________________________________________\nmax_pooling2d_1 (MaxPooling2 (None, 56, 56, 64)        0         \n_________________________________________________________________\ndropout (Dropout)            (None, 56, 56, 64)        0         \n_________________________________________________________________\nconv2d_2 (Conv2D)            (None, 56, 56, 128)       73856     \n_________________________________________________________________\nmax_pooling2d_2 (MaxPooling2 (None, 28, 28, 128)       0         \n_________________________________________________________________\nconv2d_3 (Conv2D)            (None, 28, 28, 256)       295168    \n_________________________________________________________________\nmax_pooling2d_3 (MaxPooling2 (None, 14, 14, 256)       0         \n_________________________________________________________________\ndropout_1 (Dropout)          (None, 14, 14, 256)       0         \n_________________________________________________________________\nflatten (Flatten)            (None, 50176)             0         \n_________________________________________________________________\ndense (Dense)                (None, 128)               6422656   \n_________________________________________________________________\ndense_1 (Dense)              (None, 64)                8256      \n_________________________________________________________________\ndense_2 (Dense)              (None, 32)                2080      \n_________________________________________________________________\ndense_3 (Dense)              (None, 1)                 33        \n=================================================================\nTotal params: 6,821,441\nTrainable params: 6,821,441\nNon-trainable params: 0\n_________________________________________________________________\n","output_type":"stream"}]},{"cell_type":"markdown","source":"#### <span style='background:#4A1810;color:#ffffff;'> Train the model </span>","metadata":{"papermill":{"duration":
…
